CnNet_cats_dogs_birds.ckpt (torch, 188049 bytes, 8 tensors)

layer1.0.weight f4 [16, 3, 7, 7]
-0.019894546 0.0548438 0.0039823824 0.022459194 0.065974355 0.00814174 0.033099893 -0.06200749
0.0329196 0.033293452 0.018516488 -0.07284805 0.05462386 0.05252253 -0.042822596 -0.0786093
-0.062715955 -0.047609616 0.07933834 0.028373167 0.003525224 -0.05433227 0.06433609 0.05875156
0.044110887 0.08057672 -0.012717428 0.062379047 -0.017672649 0.03935906 -0.06095036 0.012427327
0.008809778 0.040078167 -0.0768379 -0.007441168 0.021713208 -0.07993428 0.03530742 0.06940929
-0.050904673 -0.065686904 -0.021883769 -0.0006389668 -0.0051521566 0.016822677 0.038005844 0.0073750084
0.0011079081 -0.03666302 0.051986303 -0.056376707 0.07427887 0.050826292 -0.076478705 -0.0637892
0.04900942 -0.014314858 0.02695364 -0.0177681 -0.016450303 0.077421084 -0.005322059 -0.068930864
0.013506214 -0.08054642 0.004308364 0.004981954 -0.07094041 -0.048368476 0.03134425 0.03489893
-0.074710086 -0.008074674 -0.06677857 0.03340605 -0.065018505 0.05419687 -0.028523928 0.028961496
-0.052985113 0.07841413 0.053349435 0.0775426 0.07498565 0.02443163 -0.061838016 0.051739134
-0.04308725 -0.064650886 -0.019369394 -0.016816186 0.067416824 0.017781094 0.004856381 -0.013700292
0.05994988 -0.042403866 0.04907823 -0.009962237 0.006539308 0.07841248 -0.07343187 -0.05739835
0.052623134 0.018751692 0.029196601 0.07652711 0.036680285 0.057041064 -0.014791525 -0.06219586
0.019197421 -0.037467733 0.080545 -0.054293055 -0.050314683 -0.04425516 -0.04461422 -0.009822885
-0.08118294 -0.08361171 -0.051275246 -0.019883538 -0.049588688 -0.0042930506 -0.062513284 0.026140058
-0.023974475 0.040262613 -0.07023602 -0.03759103 -0.06703565 -0.06750101 -0.062855385 0.0040224525
0.0059593734 0.02837209 0.056549124 -0.05474698 0.027186405 -0.017866936 0.0050191106 -0.06446752
0.006418841 -0.07545575 0.028417464 -0.04699657 0.07864391 -0.07507772 0.07859208 -0.034786604
0.017198093 0.048850376 0.027212134 0.08878054 -0.07130258 0.05220294 0.044068087 -0.007987206
0.0038345335 0.076682776 0.05373957 -0.013990281 0.023649083 -0.05172013 -0.031770345 -0.06728099
-0.066057794 0.05498134 -0.0064060767 0.0051164976 -0.0036897527 -0.041089136 -0.018059365 -0.05141229
0.051791634 -0.07229622 -0.05993414 0.009261864 -0.0040810406 -0.020866415 -0.057196103 0.077513024
0.014348471 0.056151364 -0.0027268056 0.039810076 -0.021500822 0.03589878 0.035930417 -0.070326865
0.066985376 0.015769804 0.055491053 0.047213987 -0.026032273 -0.04532898 0.005034885 -0.07691476
-0.0015935481 0.00037171296 0.041886214 0.00041457973 -0.034480263 0.06416733 0.054044124 0.015926566
0.010959793 -0.004316891 -0.005629905 0.04316693 0.016906446 -0.061270617 -0.062148675 0.0100668715
-0.09710477 0.07868099 0.044510916 0.07843816 -0.07652056 -0.02276441 -0.01048114 0.036777154
0.0043753297 -0.03765469 0.022678364 -0.05127295 -0.0893568 0.04239383 -0.078192964 0.03758559
0.08078973 0.08444665 -0.05469233 -0.053345382 -0.037061267 -0.0048418003 0.009672184 0.08852852
0.071549475 0.01661013 -0.0378038 0.043662436 -0.04968025 0.08322156 0.0076513435 0.07180205
0.028595397 0.011228143 -0.06874958 -0.024408218 0.009878832 0.0854115 0.040545173 -0.032368757
00000000: e3f9 a2bc e4a3 603d a57e 823b 58fc b73c
00000010: 901d 873d ef64 053c c193 073d 91fb 7dbd
00000020: b4d6 063d b75e 083d e4af 973c 5c31 95bd
00000030: 45bd 5f3d dd21 573d bf66 2fbd eafd a0bd
00000040: 3971 80bd 4d02 43bd 247c a23d d86e e83c
00000050: 7207 673b 848b 5ebd a4c2 833d 7aa5 703d
00000060: 9ead 343d 6805 a53d c25c 50bc 2c81 7f3d
00000070: 3bc6 90bc f736 213d 16a7 79bd fd9b 4b3c
00000080: e356 103c 0129 243d 305d 9dbd 0bd5 f3bb
00000090: e6df b13c 95b4 a3bd 839e 103d 7526 8e3d
000000a0: 6b81 50bd db86 86bd 9745 b3bc 5680 27ba
000000b0: 6cd3 a8bb b6cf 893c 04ac 1b3d 0eaa f13b
000000c0: 3a37 913a f62b 16bd 97ef 543d 43eb 66bd
000000d0: 851f 983d 3b2f 503d dea0 9cbd e9a3 82bd
000000e0: 1abe 483d de88 6abc e1cd dc3c 688e 91bc
000000f0: c9c2 86bc f28e 9e3d ab64 aebb a02b 8dbd
00000100: 2b49 5d3c 85f5 a4bd 2d2d 8d3b a93f a33b
00000110: 3549 91bd 061e 46bd d462 003d 2ef2 0e3d
00000120: 9a01 99bd a34b 04bc 34c3 88bd c8d4 083d
00000130: 6c28 85bd 8afd 5d3d 03ab e9bc a940 ed3c
00000140: eb06 59bd 9697 a03d f084 5a3d a8ce 9e3d
00000150: 1492 993d d724 c83c dc49 7dbd 6aec 533d
00000160: 427c 30bd af67 84bd 90ac 9ebc 19c2 89bc
00000170: d511 8a3d a8a9 913c 4722 9f3b 3177 60bc
00000180: 018e 753d adaf 2dbd 4106 493d a738 23bc
00000190: b147 d63b b996 a03d 7363 96bd 881a 6bbd
000001a0: 5b8b 573d 269d 993c b62d ef3c 3fba 9c3d
000001b0: 113e 163d e4a3 693d 2758 72bc 16c1 7ebd
000001c0: e943 9d3c c477 19bd c7f4 a43d 6562 5ebd
000001d0: c516 4ebd e644 35bd 66bd 36bd 2af0 20bc
000001e0: 3e43 a6bd 9e3c abbd fe05 52bd cde2 a2bc
000001f0: 821d 4bbd b8ac 8cbb f706 80bd ad23 d63c
00000200: 1e66 c4bc 69ea 243d e7d7 8fbd 0df9 19bd
00000210: fd49 89bd f83d 8abd 53ba 80bd c7ce 833b
00000220: d946 c33b 966c e83c 0ea0 673d 5f3e 60bd
00000230: 06b6 de3c ae5d 92bc 5a77 a43b 8c07 84bd
00000240: 2455 d23b 8b88 9abd becb e83c 7a7f 40bd
00000250: 0f10 a13d 59c2 99bd e2f4 a03d 667c 0ebd
00000260: 04e3 8c3c 5517 483d fbeb de3c 92d2 b53d
00000270: 1607 92bd c0d2 553d bd80 343d c5dc 02bc
00000280: cc4c 7b3b dc0b 9d3d 061e 5c3d 7e37 65bc
00000290: b9bb c13c 7dd8 53bd 9f21 02bd 9eca 89bd
000002a0: 4f49 87bd 1d34 613d 11ea d1bb 4ba8 a73b
000002b0: c7cf 71bb 154d 28bd 3cf1 93bc b295 52bd
000002c0: 7723 543d 0a10 94bd 807d 75bd 13bf 173c
000002d0: 40ba 85bb 0bf0 aabc 7646 6abd 26bf 9e3d
000002e0: d915 6b3c f9fe 653d 35b4 32bb e40f 233d
000002f0: 7e22 b0bc 990a 133d c62b 133d 8807 90bd
00000300: a12f 893d ad2f 813c 964a 633d 7463 413d
00000310: a241 d5bc e1aa 39bd adfb a43b 7c85 9dbd
00000320: 9ade d0ba 78e2 c239 e190 2b3d f35b d939
00000330: 2d3b 0dbd 296a 833d 5f5d 5d3d 6e78 823c
00000340: b490 333c b574 8dbb 117b b8bb cfcf 303d
00000350: 637f 8a3c e6f6 7abd 9c8f 7ebd 85ef 243c
00000360: dede c6bd 8023 a13d 1451 363d 30a4 a03d
00000370: d0b6 9cbd 6e7c babc 16b9 2bbc a4a3 163d
00000380: ed5e 8f3b ce3b 1abd fac7 b93c 9603 52bd
00000390: b300 b7bd 27a5 2d3d a223 a0bd 59f3 193d
000003a0: 1675 a53d 5ef2 ac3d 1105 60bd b080 5abd
000003b0: 8ecd 17bd f7a7 9ebb 1478 1e3c 714e b53d
000003c0: 8888 923d f811 883c 28d8 1abd 62d7 323d
000003d0: 857d 4bbd 1170 aa3d 1fb8 fa3b f40c 933d
000003e0: e540 ea3c 3ff6 373c 94cc 8cbd bef3 c7bc
000003f0: d3da 213c 39ec ae3d b212 263d 1a95 04bd

layer1.0.bias f4 [16]
-0.020369386 0.020745456 0.029521374 0.118823774 -0.048202053 -0.0058303922 -0.14197086 0.04669296
0.0010900947 0.041971106 0.08677197 0.0014893529 0.12286606 -0.007971483 -0.0020697713 -0.010423974
00000000: b3dd a6bc 60f2 a93c cfd6 f13c e159 f33d
00000010: 846f 45bd e00c bfbb cf60 11be 1e41 3f3d
00000020: 82e1 8e3a e5e9 2b3d 81b5 b13d 6436 c33a
00000030: 33a1 fb3d d39a 02bc 00a5 07bb 51c9 2abc

layer2.0.weight f4 [32, 16, 5, 5]
-0.041756414 0.035876412 0.019350026 -0.029580867 0.0047205845 -0.014057994 0.042513438 0.04731816
0.04358727 -0.01833495 0.043434776 -0.023885626 -0.020626996 0.034777302 0.011866059 0.0018473776
0.024625987 0.029063597 0.026559234 -0.013156528 -0.03762026 0.020557975 0.04622415 0.034656998
-0.034499604 -0.041432064 -0.018070357 -0.036623713 0.037772723 -0.025889715 -0.03971804 -0.042293306
-0.03483229 -0.04294068 -0.033135477 -0.036604647 -0.01985217 0.02648518 -0.025235662 0.002130141
0.009004087 0.050034247 0.036529616 0.036449663 -0.01797619 -0.034909472 0.03338559 0.004540327
-0.022254696 0.038522054 -0.020753149 0.043685876 -0.04707568 0.009351188 0.020060793 -0.04857272
-0.027516868 -0.03292038 -0.006226353 0.006512477 0.009525526 0.03250833 0.014362151 -0.009833219
-0.015671344 0.0334848 0.0042296904 -0.05008892 -0.03378164 0.038331892 -0.021829339 -0.0053788074
0.040451758 -0.029364575 0.045416906 -0.04316093 0.011989348 -0.049005534 0.019557912 0.016827712
0.024179941 0.040594924 0.042160075 0.024177626 0.041729525 -0.04474812 -0.00736426 0.003076182
0.02851599 -0.036438383 0.01906886 0.045769025 -0.03503734 0.0060363975 0.035572316 -0.0478518
-0.016336277 -0.037054278 0.019434968 -0.036059648 0.032964982 -0.04317245 0.004386871 0.028108258
-0.00041779364 0.017146755 0.019130634 -0.036782138 0.02197425 -0.029409958 -0.0035918776 -0.045729693
-0.015504129 -0.022751398 0.017346896 -0.0052660313 -0.047803972 0.011576133 -0.03326252 0.008235057
0.015807508 0.0148288235 -0.039856676 0.010240755 0.027412266 -0.038063705 0.03536728 -0.039495282
0.0058478126 0.0066794525 0.032573525 0.027423708 0.036256656 0.044351485 0.050982747 -0.005476998
0.037368286 -0.039226964 -0.005657256 0.002908964 -0.013303287 0.023011994 0.015757496 0.04980943
-0.032138247 -0.029968068 0.049369495 -0.048008386 -0.018659336 -0.04316853 0.043145817 -0.04556835
-0.016056873 0.01964557 0.008813478 -0.027826056 -0.01539814 0.027544284 0.029922038 -0.021934383
0.03232638 0.038617868 -0.019277986 -0.027105259 0.04595043 0.013609859 -0.02821521 0.036575817
-0.053565137 0.021269096 -0.04884886 -0.022402333 -0.052106664 0.005577529 0.013666502 -0.044321515
0.04558339 0.026778478 -0.029469306 0.010394778 -0.0050302832 0.034256667 -0.019839615 -0.011396266
-0.015344765 0.01611566 0.00077208545 -0.029099435 -0.031779468 0.031385627 -0.02097216 -0.038960863
0.035785254 -0.03203012 -0.0032678684 -0.020116078 0.01904001 0.015255692 0.04728384 0.047198538
0.0062844837 -0.04765586 -0.0016030013 -0.002430365 0.02771657 0.007591829 0.022232756 0.011203883
-0.029802196 0.035080444 -0.020764608 0.011090822 -0.030792553 -0.050503314 -0.022642387 -0.041093294
0.037115768 -0.010957225 0.0445217 -0.005623082 -0.028719835 -0.034910552 0.0043012965 0.047294445
0.027795024 -0.024317982 0.023830425 -0.008551508 -0.030382998 0.02278317 0.012857592 -0.007233092
0.024907738 -0.016374826 -0.021191912 0.0062915683 0.04013572 0.047663346 0.025309846 -0.013335271
-0.009880499 -0.023812963 0.03547439 0.03625632 0.046613153 0.04241645 0.033077694 0.011242926
-0.0067636347 -0.003238009 0.019690938 -0.030595275 0.033094615 0.00084443786 0.012452442 -0.0039225766
00000000: c608 2bbd 25f3 123d f283 9e3c 9353 f2bc
00000010: 22af 9a3b 8053 66bc 9222 2e3d b0d0 413d
00000020: 9188 323d 2d33 96bc aae8 313d caab c3bc
00000030: f2f9 a8bc a572 0e3d dc69 423c b523 f23a
00000040: 70bc c93c c816 ee3c c092 d93c 7a8e 57bc
00000050: b417 1abd 3369 a83c 8955 3d3d 7ff4 0d3d
00000060: 754f 0dbd abb4 29bd 4908 94bc bf02 16bd
00000070: 92b7 1a3d ab16 d4bc 62af 22bd bf3b 2dbd
00000080: 4eac 0ebd 91e2 2fbd 11b9 07bd c1ee 15bd
00000090: 05a1 a2bc 73f7 d83c 05bb cebc d699 0b3b
000000a0: e185 133c b6f0 4c3d 14a0 153d 3e4c 153d
000000b0: ce42 93bc 3cfd 0ebd 54bf 083d 06c7 943b
000000c0: 7b4f b6bc 4dc9 1d3d 8202 aabc f6ef 323d
000000d0: 6ed2 40bd ba35 193c 8856 a43c 30f4 46bd
000000e0: 0e6b e1bc 85d7 06bd 6f06 ccbb 9e66 d53b
000000f0: f410 1c3c 7427 053d 3a4f 6b3c 831b 21bc
00000100: 3161 80bc 5c27 093d 3799 8a3b 0a2a 4dbd
00000110: 9e5e 0abd e701 1d3d 71d3 b2bc b540 b0bb
00000120: beb0 253d fa8d f0bc 1407 3a3d 84c9 30bd
00000130: f86e 443c 07ba 48bd ea37 a03c 45da 893c
00000140: 0315 c63c dd46 263d 0bb0 2c3d 2810 c63c
00000150: 94ec 2a3d ce49 37bd e44f f1bb c599 493b
00000160: 5e9a e93c 6a40 15bd 4c36 9c3c 4d78 3b3d
00000170: 5083 0fbd f9cc c53b 47b4 113d 4000 44bd
00000180: a8d3 85bc 3ac6 17bd 1536 9f3c 48b3 13bd
00000190: 4a06 073d 98d5 30bd bebf 8f3b 4a43 e63c
000001a0: 500b dbb9 5a77 8c3c d9b7 9c3c dea8 16bd
000001b0: 5803 b43c 27ed f0bc b565 6bbb 0f4f 3bbd
000001c0: 0805 7ebc 2461 babc 141b 8e3c ac8e acbb
000001d0: 19ce 43bd d2a9 3d3c 483e 08bd 55ec 063c
000001e0: bf7e 813c 98f4 723c c140 23bd d7c8 273c
000001f0: b08f e03c b0e8 1bbd 48dd 103d cec5 21bd
00000200: 029f bf3b 4fdf da3b d16b 053d afa7 e03c
00000210: dc81 143d e7a9 353d 49d3 503d 6478 b3bb
00000220: 7d0f 193d 74ac 20bd 8160 b9bb 51a4 3e3b
00000230: 08f6 59bc a683 bc3c dd15 813c f904 4c3d
00000240: 65a3 03bd 987f f5bc ab37 4a3d 71a4 44bd
00000250: 77db 98bc 7cd1 30bd abb9 303d e1a5 3abd
00000260: b489 83bc bfef a03c 6866 103c 78f3 e3bc
00000270: 7b48 7cbc 8da4 e13c 101f f53c bcaf b3bc
00000280: ab68 043d c52d 1e3d deec 9dbc d90b debc
00000290: 8536 3c3d e3fb 5e3c 9623 e7bc 86d0 153d
000002a0: 1e67 5bbd 873c ae3c be15 48bd 1985 b7bc
000002b0: cc6d 55bd b4c3 b63b 77e9 5f3c 7a8a 35bd
000002c0: a6b5 3a3d 8a5e db3c 9d69 f1bc dc4e 2a3c
000002d0: 13d5 a4bb b850 0c3d b086 a2bc 67b7 3abc
000002e0: 9c68 7bbc fd04 843c c765 4a3a f061 eebc
000002f0: 302b 02bd 378e 003d cfcd abbc 6d95 1fbd
00000300: 8f93 123d 0432 03bd bc29 56bb 79ca a4bc
00000310: ccf9 9b3c 03f3 793c b3ac 413d 4153 413d
00000320: 12ee cd3b cb32 43bd cc1b d2ba c246 1fbb
00000330: dc0d e33c e1c4 f83b 7821 b63c 7e90 373c
00000340: bc23 f4bc 83b0 0f3d 8a1a aabc 47b6 353c
00000350: aa40 fcbc 90dc 4ebd 877c b9bc 7151 28bd
00000360: b406 183d ef85 33bc 635c 363d d541 b8bb
00000370: dc45 ebbc 5efe 0ebd e4f1 8c3b d2b7 413d
00000380: 64b2 e33c 8136 c7bc 0638 c33c a01b 0cbc
00000390: c4e5 f8bc c5a3 ba3c a6a8 523c 9303 edbb
000003a0: 500b cc3c 8024 86bc a99a adbc 8029 ce3b
000003b0: 5a65 243d a43a 433d 9856 cf3c 2e7c 5abc
000003c0: d1e1 21bc 6713 c3bc 984d 113d 8281 143d
000003d0: 6fed 3e3d dfbc 2d3d 7a7c 073d 4034 383c
000003e0: 7ba1 ddbb c734 54bb e44e a13c f1a2 fabc
000003f0: 388e 073d 445d 5d3a 5405 4c3c f588 80bb

layer2.0.bias f4 [32]
-0.019643895 0.07585575 0.019482546 0.062243983 -0.026013594 0.035651162 -0.0679179 -0.044113994
-0.046927467 -0.00451107 -0.036727637 0.036612462 0.07123684 -0.0126832705 0.048346322 0.02192632
-0.01134309 0.011549016 0.015098486 -0.025541823 -0.052422922 -0.047276866 0.034187477 -0.038101505
-0.04183863 -0.02274756 0.016138617 -0.005982443 0.04509549 -0.034434993 -0.011602089 -0.07133564
00000000: 3cec a0bc 425a 9b3d dc99 9f3c 8cf3 7e3d
00000010: 761a d5bc f406 123d 8a18 8bbd e0b0 34bd
00000020: 0437 40bd 99d1 93bb b86f 16bd f3f6 153d
00000030: 9fe4 913d 7ecd 4fbc cb06 463d d39e b33c
00000040: 5ed8 39bc 1638 3d3c a45f 773c 163d d1bc
00000050: 6bb9 56bd 63a5 41bd 2b08 0c3d 5310 1cbd
00000060: fc5e 2bbd 1759 babc 2235 843c 5f08 c4bb
00000070: 0cb6 383d b50b 0dbd b016 3ebc 6c18 92bd

layer3.0.weight f4 [64, 32, 3, 3]
-0.039672628 0.04755335 0.0016941435 -0.018457334 -0.016140105 0.05198875 -0.018355122 0.009068489
-0.05564554 0.004852546 -0.056129813 0.04523756 -0.053099144 0.047203075 0.05420404 0.031586856
-0.03517057 -0.0586809 -0.021993618 -0.05253182 -0.017136069 -0.0003514059 -0.049013775 0.030161645
-0.055820096 -0.00085757626 0.019773073 -0.04552818 -0.02584605 0.06403397 -0.052544765 0.046273805
0.038731243 -0.02063356 -0.061240338 0.0545393 0.057440225 -0.028429037 -0.020532023 0.046723
0.025277419 0.04516332 -0.050530486 0.03230372 0.038366202 0.039594572 0.019542076 -0.00068212365
-0.024890544 0.028470274 0.032673877 -0.04336957 -0.03885502 -0.035270724 -0.025908241 0.020056894
0.05791262 -0.032789 0.043455515 0.017495451 0.002376135 -0.0026410616 0.030827917 0.04421936
0.04525925 0.03652271 0.019675236 0.053534105 0.018384155 -0.047774095 -0.03374504 0.04389367
-0.05678022 -0.042372253 -0.015734652 -0.06247866 0.05479051 -0.023496335 -0.010247294 0.015605956
-0.027406204 -0.025146874 0.05716057 0.00039326496 -0.021823285 0.0460303 0.03619828 -0.047882657
0.023139114 -0.041511152 -0.04154501 -0.020802539 0.0069412314 0.011915529 -0.016535755 0.0020232536
0.0086111855 -0.036355406 -0.057898182 -0.022254156 0.038757008 0.039864134 0.023849085 -0.048077542
-0.032981336 -0.013971781 -0.045996904 -0.044105776 -0.007998752 0.006424999 -0.03531898 0.0045645977
0.025522327 0.0032445672 0.012688204 0.00484721 -0.045355365 -0.014836791 -0.0581203 -0.04943498
-0.056880027 0.03908316 -0.014744619 0.030043727 0.010055512 0.01791224 -0.010672645 -0.026738605
0.043105997 0.055823963 0.04830573 -0.054930806 -0.029205747 0.0046377513 -0.039015673 -0.0509467
-0.051650878 -0.032797232 -0.02083272 0.033043757 -0.039705936 -0.034745812 -0.044088855 -0.010026183
-0.052809887 0.012140808 0.04082769 0.02638558 -0.05243875 0.015824998 0.03502622 0.0490891
-0.009327153 -0.0022304975 -0.046220843 0.023949375 0.0011855613 0.044224873 -0.0014682277 0.0040600686
-0.026225533 0.0584348 0.05884015 0.018110966 0.052504994 0.04500969 0.01568609 0.04246847
0.0014077427 -0.038417466 0.037829194 -0.035360847 -0.056973614 0.0301998 -0.018590575 0.056326266
-0.053434942 -0.00028475386 -0.011178355 0.033044405 -0.00028482857 0.01797202 0.016009375 0.01278259
-0.043920852 0.024272803 0.002303257 0.009178166 0.01903826 -0.01776291 -0.04001788 0.012354581
-0.038445856 0.045092974 0.008840893 0.0044554053 0.009943753 -0.05410326 -0.04332175 0.034474142
-0.009338144 -0.033877753 0.038220394 0.031184396 -0.050198644 0.04903828 0.022208275 0.009242819
-0.023129834 -0.045167163 -0.012564158 0.040087286 0.0031128917 0.026191585 0.012231784 -0.01833355
-0.00013896717 0.01486337 -0.009948845 0.004780582 -0.038588442 0.041874684 0.03172545 0.037598044
0.03515838 -0.040605024 -0.04709604 -0.05431692 0.0049430267 0.047190964 -0.05597496 0.015984172
0.014201539 -0.0015426148 0.03051838 0.042950083 -0.044187818 -0.010595728 0.030185105 -0.054840222
-0.029456956 -0.043038912 0.016042545 -0.043191563 -0.051840596 0.018355858 -0.024499726 -0.030608106
0.060348637 0.03933146 0.05810421 0.06575134 -0.015732523 -0.041245077 0.028869359 0.0460533
00000000: c47f 22bd 4dc7 423d 060e de3a d633 97bc
00000010: 4138 84bc 28f2 543d 7b5d 96bc 0094 143c
00000020: 94ec 63bd 1b02 9f3b 60e8 65bd 054b 393d
00000030: 7d7e 59bd 0358 413d 0e05 5e3d 3861 013d
00000040: 040f 10bd 625b 70bd f62b b4bc 9b2b 57bd
00000050: f160 8cbc e73c b8b9 abc2 48bd 8e15 f73c
00000060: 9da3 64bd f8ce 60ba 24fb a13c c27b 3abd
00000070: 18bb d3bc 3e24 833d 2e39 57bd 9a89 3d3d
00000080: a7a4 1e3d b607 a9bc 26d7 7abd 9a64 5f3d
00000090: 7146 6b3d 03e4 e8bc c632 a8bc 9e60 3f3d
000000a0: 9712 cf3c 2cfd 383d 0ef9 4ebd e850 043d
000000b0: e125 1d3d eb2d 223d b416 a03c 8bd0 32ba
000000c0: 41e7 cbbc 7e3a e93c 0bd5 053d 4aa4 31bd
000000d0: 7126 1fbd 0978 10bd 853d d4bc 5b4e a43c
000000e0: c935 6d3d c24d 06bd 69fe 313d 9f52 8f3c
000000f0: eeb8 1b3b a915 2dbb d48a fc3c 5c1f 353d
00000100: c361 393d d698 153d f62d a13c 9446 5b3d
00000110: 5e9a 963c c5ae 43bd 3d38 0abd d9c9 333d
00000120: 6092 68bd 878e 2dbd f5e5 80bc a0e9 7fbd
00000130: 046c 603d 637b c0bc 44e4 27bc 20b0 7f3c
00000140: fa82 e0bc d100 cebc 3421 6a3d 212f ce39
00000150: bfc6 b2bc 458a 3c3d a644 143d 9b20 44bd
00000160: 3d8e bd3c 9907 2abd 1a2b 2abd 166a aabc
00000170: 4573 e33b 5a39 433c fe75 87bc 9098 043b
00000180: ee15 0d3c 68e9 14bd a526 6dbd 594e b6bc
00000190: abbf 1e3d 9348 233d 285f c33c f5ec 44bd
000001a0: 7017 07bd e6e9 64bc 4067 3cbd 42a8 34bd
000001b0: 330d 03bc cc88 d23b a3aa 10bd 9f92 953b
000001c0: 3314 d13c cea2 543b 2fe2 4f3c 58d5 9e3b
000001d0: 8cc6 39bd 0316 73bc 8d0f 6ebd 557c 4abd
000001e0: 08fb 68bd aa15 203d 6a93 71bc 431e f63c
000001f0: e0bf 243c b1bc 923c 51dc 2ebc eb0a dbbc
00000200: ea8f 303d aba7 643d 3bdc 453d 20ff 60bd
00000210: e440 efbc 47f8 973b e6ce 1fbd 7dad 50bd
00000220: df8f 53bd 6456 06bd 61a9 aabc e458 073d
00000230: b1a2 22bd a051 0ebd 8496 34bd dc44 24bc
00000240: 2e4f 58bd 3dea 463c f03a 273d 9226 d83c
00000250: 04ca 56bd 6da3 813c a777 0f3d a711 493d
00000260: ead0 18bc 8a2d 12bb 1152 3dbd 7b31 c43c
00000270: d664 9b3a 2425 353d 8c71 c0ba 530a 853b
00000280: eed6 d6bc 5459 6f3d 5e02 713d 735d 943c
00000290: 7a0f 573d 155c 383d 1d80 803c 6bf3 2d3d
000002a0: 0284 b83a a25b 1dbd c9f2 1a3d 89d6 10bd
000002b0: 2a5d 69bd 9265 f73c 434b 98bc 5fb6 663d
000002c0: 99de 5abd 044b 95b9 6b25 37bc 9259 073d
000002d0: 0b55 95b9 0f3a 933c 1826 833c 126e 513c
000002e0: 5ae6 33bd c2d7 c63c 3df2 163b 0560 163c
000002f0: 20f6 9b3c 8683 91bc cae9 23bd de6a 4a3c
00000300: 6779 1dbd 69b3 383d 65d9 103c a6fe 913b
00000310: 1feb 223c 619b 5dbd 2672 31bd c234 0d3d
00000320: 04ff 18bc 66c3 0abd fd8c 1c3d 6b76 ff3c
00000330: 189d 4dbd 5ddc 483d 21ee b53c 316f 173c
00000340: c77a bdbc 3401 39bd e6d9 4dbc 9132 243d
00000350: a801 4c3b bc8f d63c d267 483c 3e30 96bc
00000360: b7b7 11b9 7e85 733c 7b00 23bc 6ea6 9c3b
00000370: ea0e 1ebd ca84 2b3d 8cf2 013d 6800 1a3d
00000380: 3c02 103d 7451 26bd c7e7 40bd 6b7b 5ebd
00000390: 1df9 a13b 504b 413d 0046 65bd 3df1 823c
000003a0: 92ad 683c 9031 caba af01 fa3c 6dec 2f3d
000003b0: 49fe 34bd b499 2dbc c146 f73c 24a0 60bd
000003c0: b74f f1bc 9249 30bd a86b 833c a3e9 30bd
000003d0: ce56 54bd 065f 963c a6b3 c8bc dabd fabc
000003e0: 2230 773d 061a 213d aefe 6d3d a3a8 863d
000003f0: 7ee1 80bc 99f0 28bd 6f7f ec3c 63a2 3c3d

layer3.0.bias f4 [64]
-0.007333129 0.068450525 -0.03653326 0.0082012685 -0.056709915 -0.057256557 -0.043719105 -0.044652265
-0.012612884 0.042328816 0.03818472 -0.036233388 0.025390325 -0.03835661 0.0351029 0.05257124
0.011345619 -0.055970456 -0.0036329967 -0.03901523 -0.011496515 0.03551441 -0.0477517 -0.026604604
-0.059508175 -0.018590197 -0.025146807 0.05564318 0.022787472 -0.04460429 0.015736537 -0.0749881
-0.020990938 -0.020442732 0.032456044 0.012336344 -0.015472379 0.044253424 -0.0104757 0.07790003
-0.02148639 0.021172276 -0.02467668 0.004482717 0.040168297 0.07391457 -0.024720095 0.036074627
0.016789557 -0.036371905 0.010515952 -0.036976617 -0.033763036 -0.03635001 -0.030375252 -0.023554964
-0.033398494 0.0014084828 0.04137987 -0.009900527 -0.020608993 -0.06878238 -0.034036234 0.009359824
00000000: bf4a f0bb ca2f 8c3d e6a3 15bd 9d5e 063c
00000010: a848 68bd da85 6abd ce12 33bd 4be5 36bd
00000020: 45a6 4ebc fb60 2d3d 9567 1c3d 7669 14bd
00000030: 5fff cf3c d21b 1dbd 0fc8 0f3d f154 573d
00000040: fae2 393c 4741 65bd 9217 6ebb 6fce 1fbd
00000050: e15b 3cbc 8f77 113d 4997 43bd e6f1 d9bc
00000060: d8be 73bd 784a 98bc ad00 cebc 1aea 633d
00000070: cbac ba3c fdb2 36bd e9e9 803c 5c93 99bd
00000080: 30f5 abbc 8477 a7bc a1f0 043d 611e 4a3c
00000090: dc7f 7dbc 1443 353d 45a2 2bbc 0d8a 9f3d
000000a0: 3a04 b0bc 7b71 ad3c c026 cabc c1e3 923b
000000b0: 8387 243d 8660 973d cc81 cabc fdc2 133d
000000c0: 418a 893c b5fa 14bd 194b 2c3c cb74 17bd
000000d0: 1c4b 0abd c0e3 14bd 85d5 f8bc 57f6 c0bc
000000e0: dccc 08bd d79c b83a f07d 293d d235 22bc
000000f0: 31d4 a8bc c7dd 8cbd 9469 0bbd f259 193c

fc.weight f4 [3, 4096]
0.0074020466 -0.017968751 -0.015285134 0.014317923 -0.005608755 -0.011196814 -0.010693226 0.028082386
-0.007444611 -0.030775348 -0.0031377478 -0.019000076 -0.022246307 -0.027779024 -0.005274959 0.03652894
0.0057705753 -0.009437856 -0.016449094 -0.014199878 -0.009865886 -0.025035717 -0.015953556 0.027925398
0.012545742 0.0020699895 0.0051349923 0.013289673 -0.003353263 -0.0029083588 -0.0028632868 0.020890616
-0.013940087 -0.008027432 0.012679876 0.012170541 0.01973437 0.010785969 -0.0017310226 0.009881708
-0.009965401 -0.018104471 -0.017242488 0.004764827 0.009104421 -0.0040058275 -0.021582343 0.02125483
0.008109294 -0.017274044 -0.007846479 -0.0059099244 -0.01909864 0.003267559 -0.005781403 0.02319791
0.009262631 0.0097496575 -0.016621407 -0.019212851 -0.024380125 -0.013887148 -0.02583204 -0.0013480657
0.0021485495 -0.021415496 -0.037954453 -0.020022536 0.012580442 -0.002376808 -0.00672517 -0.004000872
0.021323651 -0.02158906 -0.038769424 0.0047883512 0.008749388 -0.006818931 -0.021692129 -0.0019173272
0.00656863 -0.010999555 -0.023120489 -0.0008608139 -0.007997244 -0.00036683312 -0.021327583 -0.01575718
0.00070057024 0.0016545223 -0.019054653 0.0049094376 -0.0145782195 -0.018817859 -0.033600163 -0.0011535721
-0.004459367 -0.017315904 -0.012369025 -0.0072804 -0.021539746 -0.006087439 -0.026032373 -0.02207124
0.009596058 -0.014312138 -0.011933036 -0.0069680978 -0.022313371 -0.02961555 -0.010984067 -0.019788168
0.018239258 -0.023404814 -0.028421883 -0.038737833 -0.032457728 -0.025950644 -0.029990714 -0.02999602
0.019356605 -0.003680339 -0.022955688 -0.017480781 -0.020093294 -0.027746152 0.008712293 -0.021106737
0.0039231945 -0.00420429 0.0010639403 0.00946473 -0.013609667 0.0057216203 0.01381852 -0.010929378
0.0087690875 -0.0050812047 0.006173016 -0.011282595 -0.011100846 -0.013769955 -0.0042255693 -0.014015208
0.00095309876 -0.008253435 0.0150739355 0.012692719 -0.012873752 -0.014589554 -0.014914758 0.008035988
0.0006074179 -0.0061242133 -0.010217686 0.01496301 -0.008947743 -0.0131475665 0.0049460656 -0.012139848
-0.012945933 0.010962293 -0.0034727023 -0.0018525218 0.015450029 -0.0019477176 0.0069783106 0.011168094
-0.0096338205 -0.010157429 -0.01437171 -0.014012287 0.011259312 0.005585111 -0.015372169 -0.0056285355
0.009422028 -0.0070585385 0.0036273038 0.011209826 -0.015134935 -0.0098295165 0.008577865 -0.003050439
0.012605926 0.0009064786 0.004920556 0.01500395 0.009713095 -0.0085866945 -0.00539592 -0.011468245
0.0008418852 -0.019270787 0.0013590177 -0.011045414 0.011717823 -0.00045329146 -0.015345557 1.8273307e-05
0.0011412489 0.0024072689 -0.02278994 0.0049292343 0.003782465 -0.01913468 -0.0074512362 -0.01277323
0.0032833482 -0.0057354057 -0.0055792313 -0.0120900525 -0.012081832 -0.0008686504 -0.024510387 0.0070437877
0.008971721 0.0005214069 -0.0030961006 0.014232554 -0.01336608 0.009752424 -0.00320073 0.0059308656
-0.0052372743 -0.000554579 0.020900127 0.016303943 0.020660073 0.009338858 -0.012204141 0.021366637
0.005581073 -0.013022661 0.009950297 -0.0024607193 -0.010501098 0.009094031 0.002374609 -0.01680116
-0.0047369483 0.01350564 0.0017421047 -0.00541981 0.013413735 -0.016504653 -0.009940183 -0.018902935
-0.00052578136 0.0049583744 0.005734471 -0.007664191 0.00078401185 -0.021652376 0.015106187 -0.017452212
00000000: de8c f23b 3433 93bc 806e 7abc b995 6a3c
00000010: a6c9 b7bb d772 37bc a432 2fbc 080d e63c
00000020: ecf1 f3bb 951c fcbc aca2 4dbb 0ca6 9bbc
00000030: e33d b6bc d690 e3bc 90d9 acbb 5f9f 153d
00000040: 1817 bd3b 3da1 1abc 40c0 86bc 9ba6 68bc
00000050: 86a4 21bc b417 cdbc 08b1 82bc cec3 e43c
00000060: a88c 4d3c a9a8 073b 7043 a83b eebc 593c
00000070: 6bc2 5bbb 2a9a 3ebb fba5 3bbb cc22 ab3c
00000080: f664 64bc 7d85 03bc 41bf 4f3c f366 473c
00000090: f9a9 a13c a2b7 303c 7be3 e2ba e3e6 213c
000000a0: ec45 23bc d44f 94bc 1e40 8dbc 4422 9c3b
000000b0: b62a 153c 5143 83bb 74cd b0bc 9c1e ae3c
000000c0: d8dc 043c 4c82 8dbc 858e 00bc 0aa8 c1bb
000000d0: c074 9cbc 8b24 563b ec71 bdbb 8b09 be3c
000000e0: 4ac2 173c 07bd 1f3c 9e29 88bc 4564 9dbc
000000f0: d4b8 c7bc ec86 63bc b79d d3bc 94b1 b0ba
00000100: aece 0c3b 8d6f afbc 2176 1bbd 4d06 a4bc
00000110: 331e 4e3c 39c4 1bbb d15e dcbb bf19 83bb
00000120: f0ae ae3c 8adb b0bc b0cc 1ebd 9ae7 9c3b
00000130: 9859 0f3c 5771 dfbb b1b3 b1bc d34e fbba
00000140: aa3d d73b 7a37 34bc 2e67 bdbc 3ea8 61ba
00000150: df06 03bc 8253 c0b9 2fb7 aebc 3415 81bc
00000160: 79a6 373a 8edc d83a 8118 9cbc 59df a03b
00000170: 7cd9 6ebc e927 9abc 53a0 09bd 7533 97ba
00000180: e21f 92bb 15da 8dbc 73a7 4abc 6c90 eebb
00000190: 1f74 b0bc 2479 c7bb d841 d5bc bfce b4bc
000001a0: c938 1d3c 757d 6abc c882 43bc a454 e4bb
000001b0: 88ca b6bc 4f9c f2bc 84f6 33bc cc1a a2bc
000001c0: 7f6a 953c 74bb bfbc 02d5 e8bc 90ab 1ebd
000001d0: 65f2 04bd 7296 d4bc 16af f5bc 37ba f5bc
000001e0: be91 9e3c d831 71bb 910d bcbc db33 8fbc
000001f0: b19a a4bc e64b e3bc 01be 0e3c 09e8 acbc
00000200: 248e 803b 24c4 89bb ea73 8b3a f411 1b3c
00000210: 15fb 5ebc 6e7c bb3b 1367 623c 2211 33bc
00000220: 38ac 0f3c 3c80 a6bb 0347 ca3b a2da 38bc
00000230: 53e0 35bc 619b 61bc a576 8abb 0ba0 65bc
00000240: 60d9 793a 6a39 07bc abf8 763c 1ff5 4f3c
00000250: 6eec 52bc 0609 6fbc 075d 74bc 60a9 033c
00000260: 203b 1f3a a0ad c8bb 1568 27bc 6a27 753c
00000270: 8e99 12bc e468 57bc 9b12 a23b 37e6 46bc
00000280: 2e1b 54bc 309b 333c 4796 63bb 51d0 f2ba
00000290: 1e22 7d3c 8f4a ffba 50aa e43b 62fa 363c
000002a0: 2cd7 1dbc 586b 26bc 5277 6bbc cb93 65bc
000002b0: fa78 383c 4f03 b73b 8ddb 7bbc 946f b8bb
000002c0: da5e 1a3c 504b e7bb 0fb8 6d3b 6ba9 373c
000002d0: 85f8 77bc fb0b 21bc 2c8a 0c3c e0e9 47bb
000002e0: 1689 4e3c c0a0 6d3a 9e3c a13b 21d3 753c
000002f0: ac23 1f3c 35af 0cbc 42d0 b0bb 4ee5 3bbc
00000300: f6b1 5c3a c5dd 9dbc 1121 b23a d3f7 34bc
00000310: 1dfc 3f3c c0a7 edb9 ee6b 7bbc a149 9937
00000320: f595 953a 45c3 1d3b f8b1 babc 6a85 a13b
00000330: 3be3 773b 55c0 9cbc 8029 f4bb cf46 51bc
00000340: 712d 573b 12f0 bbbb fcd1 b6bb 5b15 46bc
00000350: e0f2 45bc 24b6 63ba 02ca c8bc 93cf e63b
00000360: 20fe 123c 06af 083a f3e7 4abb a82f 693c
00000370: 67fd 5abc a2c8 1f3c 57c3 51bb b557 c23b
00000380: 719d abbb 2b61 11ba be36 ab3c d98f 853c
00000390: 503f a93c 0202 193c e1f3 47bc 1609 af3c
000003a0: 6fe1 b63b 005d 55bc 9206 233c 0544 21bb
000003b0: cc0c 2cbc 21ff 143c 549f 1b3b 96a2 89bc
000003c0: 6738 9bbb c346 5d3c 5557 e43a a998 b1bb
000003d0: 48c5 5b3c c434 87bc 26dc 22bc 54da 9abc
000003e0: 97d4 09ba dc79 a23b 3be8 bb3b e523 fbbb
000003f0: 2586 4d3a 5360 b1bc f17f 773c f1f7 8ebc

fc.bias f4 [3]
0.029218145 0.014683624 -0.03679605
00000000: e45a ef3c 9593 703c 74b7 16bd
